{"format": "layers-model", "generatedBy": "keras v2.15.0", "convertedBy": "TensorFlow.js Converter v4.17.0", "modelTopology": {"keras_version": "2.15.0", "backend": "tensorflow", "model_config": {"class_name": "Functional", "config": {"name": "Fast_SCNN", "trainable": true, "layers": [{"class_name": "InputLayer", "config": {"batch_input_shape": [null, 512, 1024, 3], "dtype": "float32", "sparse": false, "ragged": false, "name": "input_layer"}, "name": "input_layer", "inbound_nodes": []}, {"class_name": "Conv2D", "config": {"name": "conv2d_26", "trainable": true, "dtype": "float32", "filters": 32, "kernel_size": [3, 3], "strides": [2, 2], "padding": "same", "data_format": "channels_last", "dilation_rate": [1, 1], "groups": 1, "activation": "linear", "use_bias": true, "kernel_initializer": {"module": "keras.initializers", "class_name": "GlorotUniform", "config": {"seed": null}, "registered_name": null}, "bias_initializer": {"module": "keras.initializers", "class_name": "Zeros", "config": {}, "registered_name": null}, "kernel_regularizer": null, "bias_regularizer": null, "activity_regularizer": null, "kernel_constraint": null, "bias_constraint": null}, "name": "conv2d_26", "inbound_nodes": [[["input_layer", 0, 0, {}]]]}, {"class_name": "BatchNormalization", "config": {"name": "batch_normalization_36", "trainable": true, "dtype": "float32", "axis": [3], "momentum": 0.99, "epsilon": 0.001, "center": true, "scale": true, "beta_initializer": {"module": "keras.initializers", "class_name": "Zeros", "config": {}, "registered_name": null}, "gamma_initializer": {"module": "keras.initializers", "class_name": "Ones", "config": {}, "registered_name": null}, "moving_mean_initializer": {"module": "keras.initializers", "class_name": "Zeros", "config": {}, "registered_name": null}, "moving_variance_initializer": {"module": "keras.initializers", "class_name": "Ones", "config": {}, "registered_name": null}, "beta_regularizer": null, "gamma_regularizer": null, "beta_constraint": null, "gamma_constraint": null}, "name": "batch_normalization_36", "inbound_nodes": [[["conv2d_26", 0, 0, {}]]]}, {"class_name": "ReLU", "config": {"name": "re_lu", "trainable": true, "dtype": "float32", "max_value": null, "negative_slope": 0.0, "threshold": 0.0}, "name": "re_lu", "inbound_nodes": [[["batch_normalization_36", 0, 0, {}]]]}, {"class_name": "SeparableConv2D", "config": {"name": "separable_conv2d_2", "trainable": true, "dtype": "float32", "filters": 48, "kernel_size": [3, 3], "strides": [2, 2], "padding": "same", "data_format": "channels_last", "dilation_rate": [1, 1], "groups": 1, "activation": "linear", "use_bias": true, "kernel_initializer": {"module": "keras.initializers", "class_name": "GlorotUniform", "config": {"seed": null}, "registered_name": null}, "bias_initializer": {"module": "keras.initializers", "class_name": "Zeros", "config": {}, "registered_name": null}, "kernel_regularizer": null, "bias_regularizer": null, "activity_regularizer": null, "kernel_constraint": null, "bias_constraint": null, "depth_multiplier": 1, "depthwise_initializer": {"module": "keras.initializers", "class_name": "GlorotUniform", "config": {"seed": null}, "registered_name": null}, "pointwise_initializer": {"module": "keras.initializers", "class_name": "GlorotUniform", "config": {"seed": null}, "registered_name": null}, "depthwise_regularizer": null, "pointwise_regularizer": null, "depthwise_constraint": null, "pointwise_constraint": null}, "name": "separable_conv2d_2", "inbound_nodes": [[["re_lu", 0, 0, {}]]]}, {"class_name": "BatchNormalization", "config": {"name": "batch_normalization_37", "trainable": true, "dtype": "float32", "axis": [3], "momentum": 0.99, "epsilon": 0.001, "center": true, "scale": true, "beta_initializer": {"module": "keras.initializers", "class_name": "Zeros", "config": {}, "registered_name": null}, "gamma_initializer": {"module": "keras.initializers", "class_name": "Ones", "config": {}, "registered_name": null}, "moving_mean_initializer": {"module": "keras.initializers", "class_name": "Zeros", "config": {}, "registered_name": null}, "moving_variance_initializer": {"module": "keras.initializers", "class_name": "Ones", "config": {}, "registered_name": null}, "beta_regularizer": null, "gamma_regularizer": null, "beta_constraint": null, "gamma_constraint": null}, "name": "batch_normalization_37", "inbound_nodes": [[["separable_conv2d_2", 0, 0, {}]]]}, {"class_name": "ReLU", "config": {"name": "re_lu_1", "trainable": true, "dtype": "float32", "max_value": null, "negative_slope": 0.0, "threshold": 0.0}, "name": "re_lu_1", "inbound_nodes": [[["batch_normalization_37", 0, 0, {}]]]}, {"class_name": "SeparableConv2D", "config": {"name": "separable_conv2d_3", "trainable": true, "dtype": "float32", "filters": 64, "kernel_size": [3, 3], "strides": [2, 2], "padding": "same", "data_format": "channels_last", "dilation_rate": [1, 1], "groups": 1, "activation": "linear", "use_bias": true, "kernel_initializer": {"module": "keras.initializers", "class_name": "GlorotUniform", "config": {"seed": null}, "registered_name": null}, "bias_initializer": {"module": "keras.initializers", "class_name": "Zeros", "config": {}, "registered_name": null}, "kernel_regularizer": null, "bias_regularizer": null, "activity_regularizer": null, "kernel_constraint": null, "bias_constraint": null, "depth_multiplier": 1, "depthwise_initializer": {"module": "keras.initializers", "class_name": "GlorotUniform", "config": {"seed": null}, "registered_name": null}, "pointwise_initializer": {"module": "keras.initializers", "class_name": "GlorotUniform", "config": {"seed": null}, "registered_name": null}, "depthwise_regularizer": null, "pointwise_regularizer": null, "depthwise_constraint": null, "pointwise_constraint": null}, "name": "separable_conv2d_3", "inbound_nodes": [[["re_lu_1", 0, 0, {}]]]}, {"class_name": "BatchNormalization", "config": {"name": "batch_normalization_38", "trainable": true, "dtype": "float32", "axis": [3], "momentum": 0.99, "epsilon": 0.001, "center": true, "scale": true, "beta_initializer": {"module": "keras.initializers", "class_name": "Zeros", "config": {}, "registered_name": null}, "gamma_initializer": {"module": "keras.initializers", "class_name": "Ones", "config": {}, "registered_name": null}, "moving_mean_initializer": {"module": "keras.initializers", "class_name": "Zeros", "config": {}, "registered_name": null}, "moving_variance_initializer": {"module": "keras.initializers", "class_name": "Ones", "config": {}, "registered_name": null}, "beta_regularizer": null, "gamma_regularizer": null, "beta_constraint": null, "gamma_constraint": null}, "name": "batch_normalization_38", "inbound_nodes": [[["separable_conv2d_3", 0, 0, {}]]]}, {"class_name": "ReLU", "config": {"name": "re_lu_2", "trainable": true, "dtype": "float32", "max_value": null, "negative_slope": 0.0, "threshold": 0.0}, "name": "re_lu_2", "inbound_nodes": [[["batch_normalization_38", 0, 0, {}]]]}, {"class_name": "Conv2D", "config": {"name": "conv2d_27", "trainable": true, "dtype": "float32", "filters": 384, "kernel_size": [1, 1], "strides": [1, 1], "padding": "same", "data_format": "channels_last", "dilation_rate": [1, 1], "groups": 1, "activation": "linear", "use_bias": true, "kernel_initializer": {"module": "keras.initializers", "class_name": "GlorotUniform", "config": {"seed": null}, "registered_name": null}, "bias_initializer": {"module": "keras.initializers", "class_name": "Zeros", "config": {}, "registered_name": null}, "kernel_regularizer": null, "bias_regularizer": null, "activity_regularizer": null, "kernel_constraint": null, "bias_constraint": null}, "name": "conv2d_27", "inbound_nodes": [[["re_lu_2", 0, 0, {}]]]}, {"class_name": "BatchNormalization", "config": {"name": "batch_normalization_39", "trainable": true, "dtype": "float32", "axis": [3], "momentum": 0.99, "epsilon": 0.001, "center": true, "scale": true, "beta_initializer": {"module": "keras.initializers", "class_name": "Zeros", "config": {}, "registered_name": null}, "gamma_initializer": {"module": "keras.initializers", "class_name": "Ones", "config": {}, "registered_name": null}, "moving_mean_initializer": {"module": "keras.initializers", "class_name": "Zeros", "config": {}, "registered_name": null}, "moving_variance_initializer": {"module": "keras.initializers", "class_name": "Ones", "config": {}, "registered_name": null}, "beta_regularizer": null, "gamma_regularizer": null, "beta_constraint": null, "gamma_constraint": null}, "name": "batch_normalization_39", "inbound_nodes": [[["conv2d_27", 0, 0, {}]]]}, {"class_name": "ReLU", "config": {"name": "re_lu_3", "trainable": true, "dtype": "float32", "max_value": null, "negative_slope": 0.0, "threshold": 0.0}, "name": "re_lu_3", "inbound_nodes": [[["batch_normalization_39", 0, 0, {}]]]}, {"class_name": "DepthwiseConv2D", "config": {"name": "depthwise_conv2d_10", "trainable": true, "dtype": "float32", "kernel_size": [3, 3], "strides": [2, 2], "padding": "same", "data_format": "channels_last", "dilation_rate": [1, 1], "groups": 1, "activation": "linear", "use_bias": true, "bias_initializer": {"module": "keras.initializers", "class_name": "Zeros", "config": {}, "registered_name": null}, "bias_regularizer": null, "activity_regularizer": null, "bias_constraint": null, "depth_multiplier": 1, "depthwise_initializer": {"module": "keras.initializers", "class_name": "GlorotUniform", "config": {"seed": null}, "registered_name": null}, "depthwise_regularizer": null, "depthwise_constraint": null}, "name": "depthwise_conv2d_10", "inbound_nodes": [[["re_lu_3", 0, 0, {}]]]}, {"class_name": "BatchNormalization", "config": {"name": "batch_normalization_40", "trainable": true, "dtype": "float32", "axis": [3], "momentum": 0.99, "epsilon": 0.001, "center": true, "scale": true, "beta_initializer": {"module": "keras.initializers", "class_name": "Zeros", "config": {}, "registered_name": null}, "gamma_initializer": {"module": "keras.initializers", "class_name": "Ones", "config": {}, "registered_name": null}, "moving_mean_initializer": {"module": "keras.initializers", "class_name": "Zeros", "config": {}, "registered_name": null}, "moving_variance_initializer": {"module": "keras.initializers", "class_name": "Ones", "config": {}, "registered_name": null}, "beta_regularizer": null, "gamma_regularizer": null, "beta_constraint": null, "gamma_constraint": null}, "name": "batch_normalization_40", "inbound_nodes": [[["depthwise_conv2d_10", 0, 0, {}]]]}, {"class_name": "ReLU", "config": {"name": "re_lu_4", "trainable": true, "dtype": "float32", "max_value": null, "negative_slope": 0.0, "threshold": 0.0}, "name": "re_lu_4", "inbound_nodes": [[["batch_normalization_40", 0, 0, {}]]]}, {"class_name": "Conv2D", "config": {"name": "conv2d_28", "trainable": true, "dtype": "float32", "filters": 64, "kernel_size": [1, 1], "strides": [1, 1], "padding": "same", "data_format": "channels_last", "dilation_rate": [1, 1], "groups": 1, "activation": "linear", "use_bias": true, "kernel_initializer": {"module": "keras.initializers", "class_name": "GlorotUniform", "config": {"seed": null}, "registered_name": null}, "bias_initializer": {"module": "keras.initializers", "class_name": "Zeros", "config": {}, "registered_name": null}, "kernel_regularizer": null, "bias_regularizer": null, "activity_regularizer": null, "kernel_constraint": null, "bias_constraint": null}, "name": "conv2d_28", "inbound_nodes": [[["re_lu_4", 0, 0, {}]]]}, {"class_name": "BatchNormalization", "config": {"name": "batch_normalization_41", "trainable": true, "dtype": "float32", "axis": [3], "momentum": 0.99, "epsilon": 0.001, "center": true, "scale": true, "beta_initializer": {"module": "keras.initializers", "class_name": "Zeros", "config": {}, "registered_name": null}, "gamma_initializer": {"module": "keras.initializers", "class_name": "Ones", "config": {}, "registered_name": null}, "moving_mean_initializer": {"module": "keras.initializers", "class_name": "Zeros", "config": {}, "registered_name": null}, "moving_variance_initializer": {"module": "keras.initializers", "class_name": "Ones", "config": {}, "registered_name": null}, "beta_regularizer": null, "gamma_regularizer": null, "beta_constraint": null, "gamma_constraint": null}, "name": "batch_normalization_41", "inbound_nodes": [[["conv2d_28", 0, 0, {}]]]}, {"class_name": "Conv2D", "config": {"name": "conv2d_29", "trainable": true, "dtype": "float32", "filters": 384, "kernel_size": [1, 1], "strides": [1, 1], "padding": "same", "data_format": "channels_last", "dilation_rate": [1, 1], "groups": 1, "activation": "linear", "use_bias": true, "kernel_initializer": {"module": "keras.initializers", "class_name": "GlorotUniform", "config": {"seed": null}, "registered_name": null}, "bias_initializer": {"module": "keras.initializers", "class_name": "Zeros", "config": {}, "registered_name": null}, "kernel_regularizer": null, "bias_regularizer": null, "activity_regularizer": null, "kernel_constraint": null, "bias_constraint": null}, "name": "conv2d_29", "inbound_nodes": [[["batch_normalization_41", 0, 0, {}]]]}, {"class_name": "BatchNormalization", "config": {"name": "batch_normalization_42", "trainable": true, "dtype": "float32", "axis": [3], "momentum": 0.99, "epsilon": 0.001, "center": true, "scale": true, "beta_initializer": {"module": "keras.initializers", "class_name": "Zeros", "config": {}, "registered_name": null}, "gamma_initializer": {"module": "keras.initializers", "class_name": "Ones", "config": {}, "registered_name": null}, "moving_mean_initializer": {"module": "keras.initializers", "class_name": "Zeros", "config": {}, "registered_name": null}, "moving_variance_initializer": {"module": "keras.initializers", "class_name": "Ones", "config": {}, "registered_name": null}, "beta_regularizer": null, "gamma_regularizer": null, "beta_constraint": null, "gamma_constraint": null}, "name": "batch_normalization_42", "inbound_nodes": [[["conv2d_29", 0, 0, {}]]]}, {"class_name": "ReLU", "config": {"name": "re_lu_5", "trainable": true, "dtype": "float32", "max_value": null, "negative_slope": 0.0, "threshold": 0.0}, "name": "re_lu_5", "inbound_nodes": [[["batch_normalization_42", 0, 0, {}]]]}, {"class_name": "DepthwiseConv2D", "config": {"name": "depthwise_conv2d_11", "trainable": true, "dtype": "float32", "kernel_size": [3, 3], "strides": [1, 1], "padding": "same", "data_format": "channels_last", "dilation_rate": [1, 1], "groups": 1, "activation": "linear", "use_bias": true, "bias_initializer": {"module": "keras.initializers", "class_name": "Zeros", "config": {}, "registered_name": null}, "bias_regularizer": null, "activity_regularizer": null, "bias_constraint": null, "depth_multiplier": 1, "depthwise_initializer": {"module": "keras.initializers", "class_name": "GlorotUniform", "config": {"seed": null}, "registered_name": null}, "depthwise_regularizer": null, "depthwise_constraint": null}, "name": "depthwise_conv2d_11", "inbound_nodes": [[["re_lu_5", 0, 0, {}]]]}, {"class_name": "BatchNormalization", "config": {"name": "batch_normalization_43", "trainable": true, "dtype": "float32", "axis": [3], "momentum": 0.99, "epsilon": 0.001, "center": true, "scale": true, "beta_initializer": {"module": "keras.initializers", "class_name": "Zeros", "config": {}, "registered_name": null}, "gamma_initializer": {"module": "keras.initializers", "class_name": "Ones", "config": {}, "registered_name": null}, "moving_mean_initializer": {"module": "keras.initializers", "class_name": "Zeros", "config": {}, "registered_name": null}, "moving_variance_initializer": {"module": "keras.initializers", "class_name": "Ones", "config": {}, "registered_name": null}, "beta_regularizer": null, "gamma_regularizer": null, "beta_constraint": null, "gamma_constraint": null}, "name": "batch_normalization_43", "inbound_nodes": [[["depthwise_conv2d_11", 0, 0, {}]]]}, {"class_name": "ReLU", "config": {"name": "re_lu_6", "trainable": true, "dtype": "float32", "max_value": null, "negative_slope": 0.0, "threshold": 0.0}, "name": "re_lu_6", "inbound_nodes": [[["batch_normalization_43", 0, 0, {}]]]}, {"class_name": "Conv2D", "config": {"name": "conv2d_30", "trainable": true, "dtype": "float32", "filters": 64, "kernel_size": [1, 1], "strides": [1, 1], "padding": "same", "data_format": "channels_last", "dilation_rate": [1, 1], "groups": 1, "activation": "linear", "use_bias": true, "kernel_initializer": {"module": "keras.initializers", "class_name": "GlorotUniform", "config": {"seed": null}, "registered_name": null}, "bias_initializer": {"module": "keras.initializers", "class_name": "Zeros", "config": {}, "registered_name": null}, "kernel_regularizer": null, "bias_regularizer": null, "activity_regularizer": null, "kernel_constraint": null, "bias_constraint": null}, "name": "conv2d_30", "inbound_nodes": [[["re_lu_6", 0, 0, {}]]]}, {"class_name": "BatchNormalization", "config": {"name": "batch_normalization_44", "trainable": true, "dtype": "float32", "axis": [3], "momentum": 0.99, "epsilon": 0.001, "center": true, "scale": true, "beta_initializer": {"module": "keras.initializers", "class_name": "Zeros", "config": {}, "registered_name": null}, "gamma_initializer": {"module": "keras.initializers", "class_name": "Ones", "config": {}, "registered_name": null}, "moving_mean_initializer": {"module": "keras.initializers", "class_name": "Zeros", "config": {}, "registered_name": null}, "moving_variance_initializer": {"module": "keras.initializers", "class_name": "Ones", "config": {}, "registered_name": null}, "beta_regularizer": null, "gamma_regularizer": null, "beta_constraint": null, "gamma_constraint": null}, "name": "batch_normalization_44", "inbound_nodes": [[["conv2d_30", 0, 0, {}]]]}, {"class_name": "Add", "config": {"name": "add_7", "trainable": true, "dtype": "float32"}, "name": "add_7", "inbound_nodes": [[["batch_normalization_44", 0, 0, {}], ["batch_normalization_41", 0, 0, {}]]]}, {"class_name": "Conv2D", "config": {"name": "conv2d_31", "trainable": true, "dtype": "float32", "filters": 384, "kernel_size": [1, 1], "strides": [1, 1], "padding": "same", "data_format": "channels_last", "dilation_rate": [1, 1], "groups": 1, "activation": "linear", "use_bias": true, "kernel_initializer": {"module": "keras.initializers", "class_name": "GlorotUniform", "config": {"seed": null}, "registered_name": null}, "bias_initializer": {"module": "keras.initializers", "class_name": "Zeros", "config": {}, "registered_name": null}, "kernel_regularizer": null, "bias_regularizer": null, "activity_regularizer": null, "kernel_constraint": null, "bias_constraint": null}, "name": "conv2d_31", "inbound_nodes": [[["add_7", 0, 0, {}]]]}, {"class_name": "BatchNormalization", "config": {"name": "batch_normalization_45", "trainable": true, "dtype": "float32", "axis": [3], "momentum": 0.99, "epsilon": 0.001, "center": true, "scale": true, "beta_initializer": {"module": "keras.initializers", "class_name": "Zeros", "config": {}, "registered_name": null}, "gamma_initializer": {"module": "keras.initializers", "class_name": "Ones", "config": {}, "registered_name": null}, "moving_mean_initializer": {"module": "keras.initializers", "class_name": "Zeros", "config": {}, "registered_name": null}, "moving_variance_initializer": {"module": "keras.initializers", "class_name": "Ones", "config": {}, "registered_name": null}, "beta_regularizer": null, "gamma_regularizer": null, "beta_constraint": null, "gamma_constraint": null}, "name": "batch_normalization_45", "inbound_nodes": [[["conv2d_31", 0, 0, {}]]]}, {"class_name": "ReLU", "config": {"name": "re_lu_7", "trainable": true, "dtype": "float32", "max_value": null, "negative_slope": 0.0, "threshold": 0.0}, "name": "re_lu_7", "inbound_nodes": [[["batch_normalization_45", 0, 0, {}]]]}, {"class_name": "DepthwiseConv2D", "config": {"name": "depthwise_conv2d_12", "trainable": true, "dtype": "float32", "kernel_size": [3, 3], "strides": [1, 1], "padding": "same", "data_format": "channels_last", "dilation_rate": [1, 1], "groups": 1, "activation": "linear", "use_bias": true, "bias_initializer": {"module": "keras.initializers", "class_name": "Zeros", "config": {}, "registered_name": null}, "bias_regularizer": null, "activity_regularizer": null, "bias_constraint": null, "depth_multiplier": 1, "depthwise_initializer": {"module": "keras.initializers", "class_name": "GlorotUniform", "config": {"seed": null}, "registered_name": null}, "depthwise_regularizer": null, "depthwise_constraint": null}, "name": "depthwise_conv2d_12", "inbound_nodes": [[["re_lu_7", 0, 0, {}]]]}, {"class_name": "BatchNormalization", "config": {"name": "batch_normalization_46", "trainable": true, "dtype": "float32", "axis": [3], "momentum": 0.99, "epsilon": 0.001, "center": true, "scale": true, "beta_initializer": {"module": "keras.initializers", "class_name": "Zeros", "config": {}, "registered_name": null}, "gamma_initializer": {"module": "keras.initializers", "class_name": "Ones", "config": {}, "registered_name": null}, "moving_mean_initializer": {"module": "keras.initializers", "class_name": "Zeros", "config": {}, "registered_name": null}, "moving_variance_initializer": {"module": "keras.initializers", "class_name": "Ones", "config": {}, "registered_name": null}, "beta_regularizer": null, "gamma_regularizer": null, "beta_constraint": null, "gamma_constraint": null}, "name": "batch_normalization_46", "inbound_nodes": [[["depthwise_conv2d_12", 0, 0, {}]]]}, {"class_name": "ReLU", "config": {"name": "re_lu_8", "trainable": true, "dtype": "float32", "max_value": null, "negative_slope": 0.0, "threshold": 0.0}, "name": "re_lu_8", "inbound_nodes": [[["batch_normalization_46", 0, 0, {}]]]}, {"class_name": "Conv2D", "config": {"name": "conv2d_32", "trainable": true, "dtype": "float32", "filters": 64, "kernel_size": [1, 1], "strides": [1, 1], "padding": "same", "data_format": "channels_last", "dilation_rate": [1, 1], "groups": 1, "activation": "linear", "use_bias": true, "kernel_initializer": {"module": "keras.initializers", "class_name": "GlorotUniform", "config": {"seed": null}, "registered_name": null}, "bias_initializer": {"module": "keras.initializers", "class_name": "Zeros", "config": {}, "registered_name": null}, "kernel_regularizer": null, "bias_regularizer": null, "activity_regularizer": null, "kernel_constraint": null, "bias_constraint": null}, "name": "conv2d_32", "inbound_nodes": [[["re_lu_8", 0, 0, {}]]]}, {"class_name": "BatchNormalization", "config": {"name": "batch_normalization_47", "trainable": true, "dtype": "float32", "axis": [3], "momentum": 0.99, "epsilon": 0.001, "center": true, "scale": true, "beta_initializer": {"module": "keras.initializers", "class_name": "Zeros", "config": {}, "registered_name": null}, "gamma_initializer": {"module": "keras.initializers", "class_name": "Ones", "config": {}, "registered_name": null}, "moving_mean_initializer": {"module": "keras.initializers", "class_name": "Zeros", "config": {}, "registered_name": null}, "moving_variance_initializer": {"module": "keras.initializers", "class_name": "Ones", "config": {}, "registered_name": null}, "beta_regularizer": null, "gamma_regularizer": null, "beta_constraint": null, "gamma_constraint": null}, "name": "batch_normalization_47", "inbound_nodes": [[["conv2d_32", 0, 0, {}]]]}, {"class_name": "Add", "config": {"name": "add_8", "trainable": true, "dtype": "float32"}, "name": "add_8", "inbound_nodes": [[["batch_normalization_47", 0, 0, {}], ["add_7", 0, 0, {}]]]}, {"class_name": "Conv2D", "config": {"name": "conv2d_33", "trainable": true, "dtype": "float32", "filters": 384, "kernel_size": [1, 1], "strides": [1, 1], "padding": "same", "data_format": "channels_last", "dilation_rate": [1, 1], "groups": 1, "activation": "linear", "use_bias": true, "kernel_initializer": {"module": "keras.initializers", "class_name": "GlorotUniform", "config": {"seed": null}, "registered_name": null}, "bias_initializer": {"module": "keras.initializers", "class_name": "Zeros", "config": {}, "registered_name": null}, "kernel_regularizer": null, "bias_regularizer": null, "activity_regularizer": null, "kernel_constraint": null, "bias_constraint": null}, "name": "conv2d_33", "inbound_nodes": [[["add_8", 0, 0, {}]]]}, {"class_name": "BatchNormalization", "config": {"name": "batch_normalization_48", "trainable": true, "dtype": "float32", "axis": [3], "momentum": 0.99, "epsilon": 0.001, "center": true, "scale": true, "beta_initializer": {"module": "keras.initializers", "class_name": "Zeros", "config": {}, "registered_name": null}, "gamma_initializer": {"module": "keras.initializers", "class_name": "Ones", "config": {}, "registered_name": null}, "moving_mean_initializer": {"module": "keras.initializers", "class_name": "Zeros", "config": {}, "registered_name": null}, "moving_variance_initializer": {"module": "keras.initializers", "class_name": "Ones", "config": {}, "registered_name": null}, "beta_regularizer": null, "gamma_regularizer": null, "beta_constraint": null, "gamma_constraint": null}, "name": "batch_normalization_48", "inbound_nodes": [[["conv2d_33", 0, 0, {}]]]}, {"class_name": "ReLU", "config": {"name": "re_lu_9", "trainable": true, "dtype": "float32", "max_value": null, "negative_slope": 0.0, "threshold": 0.0}, "name": "re_lu_9", "inbound_nodes": [[["batch_normalization_48", 0, 0, {}]]]}, {"class_name": "DepthwiseConv2D", "config": {"name": "depthwise_conv2d_13", "trainable": true, "dtype": "float32", "kernel_size": [3, 3], "strides": [2, 2], "padding": "same", "data_format": "channels_last", "dilation_rate": [1, 1], "groups": 1, "activation": "linear", "use_bias": true, "bias_initializer": {"module": "keras.initializers", "class_name": "Zeros", "config": {}, "registered_name": null}, "bias_regularizer": null, "activity_regularizer": null, "bias_constraint": null, "depth_multiplier": 1, "depthwise_initializer": {"module": "keras.initializers", "class_name": "GlorotUniform", "config": {"seed": null}, "registered_name": null}, "depthwise_regularizer": null, "depthwise_constraint": null}, "name": "depthwise_conv2d_13", "inbound_nodes": [[["re_lu_9", 0, 0, {}]]]}, {"class_name": "BatchNormalization", "config": {"name": "batch_normalization_49", "trainable": true, "dtype": "float32", "axis": [3], "momentum": 0.99, "epsilon": 0.001, "center": true, "scale": true, "beta_initializer": {"module": "keras.initializers", "class_name": "Zeros", "config": {}, "registered_name": null}, "gamma_initializer": {"module": "keras.initializers", "class_name": "Ones", "config": {}, "registered_name": null}, "moving_mean_initializer": {"module": "keras.initializers", "class_name": "Zeros", "config": {}, "registered_name": null}, "moving_variance_initializer": {"module": "keras.initializers", "class_name": "Ones", "config": {}, "registered_name": null}, "beta_regularizer": null, "gamma_regularizer": null, "beta_constraint": null, "gamma_constraint": null}, "name": "batch_normalization_49", "inbound_nodes": [[["depthwise_conv2d_13", 0, 0, {}]]]}, {"class_name": "ReLU", "config": {"name": "re_lu_10", "trainable": true, "dtype": "float32", "max_value": null, "negative_slope": 0.0, "threshold": 0.0}, "name": "re_lu_10", "inbound_nodes": [[["batch_normalization_49", 0, 0, {}]]]}, {"class_name": "Conv2D", "config": {"name": "conv2d_34", "trainable": true, "dtype": "float32", "filters": 96, "kernel_size": [1, 1], "strides": [1, 1], "padding": "same", "data_format": "channels_last", "dilation_rate": [1, 1], "groups": 1, "activation": "linear", "use_bias": true, "kernel_initializer": {"module": "keras.initializers", "class_name": "GlorotUniform", "config": {"seed": null}, "registered_name": null}, "bias_initializer": {"module": "keras.initializers", "class_name": "Zeros", "config": {}, "registered_name": null}, "kernel_regularizer": null, "bias_regularizer": null, "activity_regularizer": null, "kernel_constraint": null, "bias_constraint": null}, "name": "conv2d_34", "inbound_nodes": [[["re_lu_10", 0, 0, {}]]]}, {"class_name": "BatchNormalization", "config": {"name": "batch_normalization_50", "trainable": true, "dtype": "float32", "axis": [3], "momentum": 0.99, "epsilon": 0.001, "center": true, "scale": true, "beta_initializer": {"module": "keras.initializers", "class_name": "Zeros", "config": {}, "registered_name": null}, "gamma_initializer": {"module": "keras.initializers", "class_name": "Ones", "config": {}, "registered_name": null}, "moving_mean_initializer": {"module": "keras.initializers", "class_name": "Zeros", "config": {}, "registered_name": null}, "moving_variance_initializer": {"module": "keras.initializers", "class_name": "Ones", "config": {}, "registered_name": null}, "beta_regularizer": null, "gamma_regularizer": null, "beta_constraint": null, "gamma_constraint": null}, "name": "batch_normalization_50", "inbound_nodes": [[["conv2d_34", 0, 0, {}]]]}, {"class_name": "Conv2D", "config": {"name": "conv2d_35", "trainable": true, "dtype": "float32", "filters": 576, "kernel_size": [1, 1], "strides": [1, 1], "padding": "same", "data_format": "channels_last", "dilation_rate": [1, 1], "groups": 1, "activation": "linear", "use_bias": true, "kernel_initializer": {"module": "keras.initializers", "class_name": "GlorotUniform", "config": {"seed": null}, "registered_name": null}, "bias_initializer": {"module": "keras.initializers", "class_name": "Zeros", "config": {}, "registered_name": null}, "kernel_regularizer": null, "bias_regularizer": null, "activity_regularizer": null, "kernel_constraint": null, "bias_constraint": null}, "name": "conv2d_35", "inbound_nodes": [[["batch_normalization_50", 0, 0, {}]]]}, {"class_name": "BatchNormalization", "config": {"name": "batch_normalization_51", "trainable": true, "dtype": "float32", "axis": [3], "momentum": 0.99, "epsilon": 0.001, "center": true, "scale": true, "beta_initializer": {"module": "keras.initializers", "class_name": "Zeros", "config": {}, "registered_name": null}, "gamma_initializer": {"module": "keras.initializers", "class_name": "Ones", "config": {}, "registered_name": null}, "moving_mean_initializer": {"module": "keras.initializers", "class_name": "Zeros", "config": {}, "registered_name": null}, "moving_variance_initializer": {"module": "keras.initializers", "class_name": "Ones", "config": {}, "registered_name": null}, "beta_regularizer": null, "gamma_regularizer": null, "beta_constraint": null, "gamma_constraint": null}, "name": "batch_normalization_51", "inbound_nodes": [[["conv2d_35", 0, 0, {}]]]}, {"class_name": "ReLU", "config": {"name": "re_lu_11", "trainable": true, "dtype": "float32", "max_value": null, "negative_slope": 0.0, "threshold": 0.0}, "name": "re_lu_11", "inbound_nodes": [[["batch_normalization_51", 0, 0, {}]]]}, {"class_name": "DepthwiseConv2D", "config": {"name": "depthwise_conv2d_14", "trainable": true, "dtype": "float32", "kernel_size": [3, 3], "strides": [1, 1], "padding": "same", "data_format": "channels_last", "dilation_rate": [1, 1], "groups": 1, "activation": "linear", "use_bias": true, "bias_initializer": {"module": "keras.initializers", "class_name": "Zeros", "config": {}, "registered_name": null}, "bias_regularizer": null, "activity_regularizer": null, "bias_constraint": null, "depth_multiplier": 1, "depthwise_initializer": {"module": "keras.initializers", "class_name": "GlorotUniform", "config": {"seed": null}, "registered_name": null}, "depthwise_regularizer": null, "depthwise_constraint": null}, "name": "depthwise_conv2d_14", "inbound_nodes": [[["re_lu_11", 0, 0, {}]]]}, {"class_name": "BatchNormalization", "config": {"name": "batch_normalization_52", "trainable": true, "dtype": "float32", "axis": [3], "momentum": 0.99, "epsilon": 0.001, "center": true, "scale": true, "beta_initializer": {"module": "keras.initializers", "class_name": "Zeros", "config": {}, "registered_name": null}, "gamma_initializer": {"module": "keras.initializers", "class_name": "Ones", "config": {}, "registered_name": null}, "moving_mean_initializer": {"module": "keras.initializers", "class_name": "Zeros", "config": {}, "registered_name": null}, "moving_variance_initializer": {"module": "keras.initializers", "class_name": "Ones", "config": {}, "registered_name": null}, "beta_regularizer": null, "gamma_regularizer": null, "beta_constraint": null, "gamma_constraint": null}, "name": "batch_normalization_52", "inbound_nodes": [[["depthwise_conv2d_14", 0, 0, {}]]]}, {"class_name": "ReLU", "config": {"name": "re_lu_12", "trainable": true, "dtype": "float32", "max_value": null, "negative_slope": 0.0, "threshold": 0.0}, "name": "re_lu_12", "inbound_nodes": [[["batch_normalization_52", 0, 0, {}]]]}, {"class_name": "Conv2D", "config": {"name": "conv2d_36", "trainable": true, "dtype": "float32", "filters": 96, "kernel_size": [1, 1], "strides": [1, 1], "padding": "same", "data_format": "channels_last", "dilation_rate": [1, 1], "groups": 1, "activation": "linear", "use_bias": true, "kernel_initializer": {"module": "keras.initializers", "class_name": "GlorotUniform", "config": {"seed": null}, "registered_name": null}, "bias_initializer": {"module": "keras.initializers", "class_name": "Zeros", "config": {}, "registered_name": null}, "kernel_regularizer": null, "bias_regularizer": null, "activity_regularizer": null, "kernel_constraint": null, "bias_constraint": null}, "name": "conv2d_36", "inbound_nodes": [[["re_lu_12", 0, 0, {}]]]}, {"class_name": "BatchNormalization", "config": {"name": "batch_normalization_53", "trainable": true, "dtype": "float32", "axis": [3], "momentum": 0.99, "epsilon": 0.001, "center": true, "scale": true, "beta_initializer": {"module": "keras.initializers", "class_name": "Zeros", "config": {}, "registered_name": null}, "gamma_initializer": {"module": "keras.initializers", "class_name": "Ones", "config": {}, "registered_name": null}, "moving_mean_initializer": {"module": "keras.initializers", "class_name": "Zeros", "config": {}, "registered_name": null}, "moving_variance_initializer": {"module": "keras.initializers", "class_name": "Ones", "config": {}, "registered_name": null}, "beta_regularizer": null, "gamma_regularizer": null, "beta_constraint": null, "gamma_constraint": null}, "name": "batch_normalization_53", "inbound_nodes": [[["conv2d_36", 0, 0, {}]]]}, {"class_name": "Add", "config": {"name": "add_9", "trainable": true, "dtype": "float32"}, "name": "add_9", "inbound_nodes": [[["batch_normalization_53", 0, 0, {}], ["batch_normalization_50", 0, 0, {}]]]}, {"class_name": "Conv2D", "config": {"name": "conv2d_37", "trainable": true, "dtype": "float32", "filters": 576, "kernel_size": [1, 1], "strides": [1, 1], "padding": "same", "data_format": "channels_last", "dilation_rate": [1, 1], "groups": 1, "activation": "linear", "use_bias": true, "kernel_initializer": {"module": "keras.initializers", "class_name": "GlorotUniform", "config": {"seed": null}, "registered_name": null}, "bias_initializer": {"module": "keras.initializers", "class_name": "Zeros", "config": {}, "registered_name": null}, "kernel_regularizer": null, "bias_regularizer": null, "activity_regularizer": null, "kernel_constraint": null, "bias_constraint": null}, "name": "conv2d_37", "inbound_nodes": [[["add_9", 0, 0, {}]]]}, {"class_name": "BatchNormalization", "config": {"name": "batch_normalization_54", "trainable": true, "dtype": "float32", "axis": [3], "momentum": 0.99, "epsilon": 0.001, "center": true, "scale": true, "beta_initializer": {"module": "keras.initializers", "class_name": "Zeros", "config": {}, "registered_name": null}, "gamma_initializer": {"module": "keras.initializers", "class_name": "Ones", "config": {}, "registered_name": null}, "moving_mean_initializer": {"module": "keras.initializers", "class_name": "Zeros", "config": {}, "registered_name": null}, "moving_variance_initializer": {"module": "keras.initializers", "class_name": "Ones", "config": {}, "registered_name": null}, "beta_regularizer": null, "gamma_regularizer": null, "beta_constraint": null, "gamma_constraint": null}, "name": "batch_normalization_54", "inbound_nodes": [[["conv2d_37", 0, 0, {}]]]}, {"class_name": "ReLU", "config": {"name": "re_lu_13", "trainable": true, "dtype": "float32", "max_value": null, "negative_slope": 0.0, "threshold": 0.0}, "name": "re_lu_13", "inbound_nodes": [[["batch_normalization_54", 0, 0, {}]]]}, {"class_name": "DepthwiseConv2D", "config": {"name": "depthwise_conv2d_15", "trainable": true, "dtype": "float32", "kernel_size": [3, 3], "strides": [1, 1], "padding": "same", "data_format": "channels_last", "dilation_rate": [1, 1], "groups": 1, "activation": "linear", "use_bias": true, "bias_initializer": {"module": "keras.initializers", "class_name": "Zeros", "config": {}, "registered_name": null}, "bias_regularizer": null, "activity_regularizer": null, "bias_constraint": null, "depth_multiplier": 1, "depthwise_initializer": {"module": "keras.initializers", "class_name": "GlorotUniform", "config": {"seed": null}, "registered_name": null}, "depthwise_regularizer": null, "depthwise_constraint": null}, "name": "depthwise_conv2d_15", "inbound_nodes": [[["re_lu_13", 0, 0, {}]]]}, {"class_name": "BatchNormalization", "config": {"name": "batch_normalization_55", "trainable": true, "dtype": "float32", "axis": [3], "momentum": 0.99, "epsilon": 0.001, "center": true, "scale": true, "beta_initializer": {"module": "keras.initializers", "class_name": "Zeros", "config": {}, "registered_name": null}, "gamma_initializer": {"module": "keras.initializers", "class_name": "Ones", "config": {}, "registered_name": null}, "moving_mean_initializer": {"module": "keras.initializers", "class_name": "Zeros", "config": {}, "registered_name": null}, "moving_variance_initializer": {"module": "keras.initializers", "class_name": "Ones", "config": {}, "registered_name": null}, "beta_regularizer": null, "gamma_regularizer": null, "beta_constraint": null, "gamma_constraint": null}, "name": "batch_normalization_55", "inbound_nodes": [[["depthwise_conv2d_15", 0, 0, {}]]]}, {"class_name": "ReLU", "config": {"name": "re_lu_14", "trainable": true, "dtype": "float32", "max_value": null, "negative_slope": 0.0, "threshold": 0.0}, "name": "re_lu_14", "inbound_nodes": [[["batch_normalization_55", 0, 0, {}]]]}, {"class_name": "Conv2D", "config": {"name": "conv2d_38", "trainable": true, "dtype": "float32", "filters": 96, "kernel_size": [1, 1], "strides": [1, 1], "padding": "same", "data_format": "channels_last", "dilation_rate": [1, 1], "groups": 1, "activation": "linear", "use_bias": true, "kernel_initializer": {"module": "keras.initializers", "class_name": "GlorotUniform", "config": {"seed": null}, "registered_name": null}, "bias_initializer": {"module": "keras.initializers", "class_name": "Zeros", "config": {}, "registered_name": null}, "kernel_regularizer": null, "bias_regularizer": null, "activity_regularizer": null, "kernel_constraint": null, "bias_constraint": null}, "name": "conv2d_38", "inbound_nodes": [[["re_lu_14", 0, 0, {}]]]}, {"class_name": "BatchNormalization", "config": {"name": "batch_normalization_56", "trainable": true, "dtype": "float32", "axis": [3], "momentum": 0.99, "epsilon": 0.001, "center": true, "scale": true, "beta_initializer": {"module": "keras.initializers", "class_name": "Zeros", "config": {}, "registered_name": null}, "gamma_initializer": {"module": "keras.initializers", "class_name": "Ones", "config": {}, "registered_name": null}, "moving_mean_initializer": {"module": "keras.initializers", "class_name": "Zeros", "config": {}, "registered_name": null}, "moving_variance_initializer": {"module": "keras.initializers", "class_name": "Ones", "config": {}, "registered_name": null}, "beta_regularizer": null, "gamma_regularizer": null, "beta_constraint": null, "gamma_constraint": null}, "name": "batch_normalization_56", "inbound_nodes": [[["conv2d_38", 0, 0, {}]]]}, {"class_name": "Add", "config": {"name": "add_10", "trainable": true, "dtype": "float32"}, "name": "add_10", "inbound_nodes": [[["batch_normalization_56", 0, 0, {}], ["add_9", 0, 0, {}]]]}, {"class_name": "Conv2D", "config": {"name": "conv2d_39", "trainable": true, "dtype": "float32", "filters": 576, "kernel_size": [1, 1], "strides": [1, 1], "padding": "same", "data_format": "channels_last", "dilation_rate": [1, 1], "groups": 1, "activation": "linear", "use_bias": true, "kernel_initializer": {"module": "keras.initializers", "class_name": "GlorotUniform", "config": {"seed": null}, "registered_name": null}, "bias_initializer": {"module": "keras.initializers", "class_name": "Zeros", "config": {}, "registered_name": null}, "kernel_regularizer": null, "bias_regularizer": null, "activity_regularizer": null, "kernel_constraint": null, "bias_constraint": null}, "name": "conv2d_39", "inbound_nodes": [[["add_10", 0, 0, {}]]]}, {"class_name": "BatchNormalization", "config": {"name": "batch_normalization_57", "trainable": true, "dtype": "float32", "axis": [3], "momentum": 0.99, "epsilon": 0.001, "center": true, "scale": true, "beta_initializer": {"module": "keras.initializers", "class_name": "Zeros", "config": {}, "registered_name": null}, "gamma_initializer": {"module": "keras.initializers", "class_name": "Ones", "config": {}, "registered_name": null}, "moving_mean_initializer": {"module": "keras.initializers", "class_name": "Zeros", "config": {}, "registered_name": null}, "moving_variance_initializer": {"module": "keras.initializers", "class_name": "Ones", "config": {}, "registered_name": null}, "beta_regularizer": null, "gamma_regularizer": null, "beta_constraint": null, "gamma_constraint": null}, "name": "batch_normalization_57", "inbound_nodes": [[["conv2d_39", 0, 0, {}]]]}, {"class_name": "ReLU", "config": {"name": "re_lu_15", "trainable": true, "dtype": "float32", "max_value": null, "negative_slope": 0.0, "threshold": 0.0}, "name": "re_lu_15", "inbound_nodes": [[["batch_normalization_57", 0, 0, {}]]]}, {"class_name": "DepthwiseConv2D", "config": {"name": "depthwise_conv2d_16", "trainable": true, "dtype": "float32", "kernel_size": [3, 3], "strides": [1, 1], "padding": "same", "data_format": "channels_last", "dilation_rate": [1, 1], "groups": 1, "activation": "linear", "use_bias": true, "bias_initializer": {"module": "keras.initializers", "class_name": "Zeros", "config": {}, "registered_name": null}, "bias_regularizer": null, "activity_regularizer": null, "bias_constraint": null, "depth_multiplier": 1, "depthwise_initializer": {"module": "keras.initializers", "class_name": "GlorotUniform", "config": {"seed": null}, "registered_name": null}, "depthwise_regularizer": null, "depthwise_constraint": null}, "name": "depthwise_conv2d_16", "inbound_nodes": [[["re_lu_15", 0, 0, {}]]]}, {"class_name": "BatchNormalization", "config": {"name": "batch_normalization_58", "trainable": true, "dtype": "float32", "axis": [3], "momentum": 0.99, "epsilon": 0.001, "center": true, "scale": true, "beta_initializer": {"module": "keras.initializers", "class_name": "Zeros", "config": {}, "registered_name": null}, "gamma_initializer": {"module": "keras.initializers", "class_name": "Ones", "config": {}, "registered_name": null}, "moving_mean_initializer": {"module": "keras.initializers", "class_name": "Zeros", "config": {}, "registered_name": null}, "moving_variance_initializer": {"module": "keras.initializers", "class_name": "Ones", "config": {}, "registered_name": null}, "beta_regularizer": null, "gamma_regularizer": null, "beta_constraint": null, "gamma_constraint": null}, "name": "batch_normalization_58", "inbound_nodes": [[["depthwise_conv2d_16", 0, 0, {}]]]}, {"class_name": "ReLU", "config": {"name": "re_lu_16", "trainable": true, "dtype": "float32", "max_value": null, "negative_slope": 0.0, "threshold": 0.0}, "name": "re_lu_16", "inbound_nodes": [[["batch_normalization_58", 0, 0, {}]]]}, {"class_name": "Conv2D", "config": {"name": "conv2d_40", "trainable": true, "dtype": "float32", "filters": 128, "kernel_size": [1, 1], "strides": [1, 1], "padding": "same", "data_format": "channels_last", "dilation_rate": [1, 1], "groups": 1, "activation": "linear", "use_bias": true, "kernel_initializer": {"module": "keras.initializers", "class_name": "GlorotUniform", "config": {"seed": null}, "registered_name": null}, "bias_initializer": {"module": "keras.initializers", "class_name": "Zeros", "config": {}, "registered_name": null}, "kernel_regularizer": null, "bias_regularizer": null, "activity_regularizer": null, "kernel_constraint": null, "bias_constraint": null}, "name": "conv2d_40", "inbound_nodes": [[["re_lu_16", 0, 0, {}]]]}, {"class_name": "BatchNormalization", "config": {"name": "batch_normalization_59", "trainable": true, "dtype": "float32", "axis": [3], "momentum": 0.99, "epsilon": 0.001, "center": true, "scale": true, "beta_initializer": {"module": "keras.initializers", "class_name": "Zeros", "config": {}, "registered_name": null}, "gamma_initializer": {"module": "keras.initializers", "class_name": "Ones", "config": {}, "registered_name": null}, "moving_mean_initializer": {"module": "keras.initializers", "class_name": "Zeros", "config": {}, "registered_name": null}, "moving_variance_initializer": {"module": "keras.initializers", "class_name": "Ones", "config": {}, "registered_name": null}, "beta_regularizer": null, "gamma_regularizer": null, "beta_constraint": null, "gamma_constraint": null}, "name": "batch_normalization_59", "inbound_nodes": [[["conv2d_40", 0, 0, {}]]]}, {"class_name": "Conv2D", "config": {"name": "conv2d_41", "trainable": true, "dtype": "float32", "filters": 768, "kernel_size": [1, 1], "strides": [1, 1], "padding": "same", "data_format": "channels_last", "dilation_rate": [1, 1], "groups": 1, "activation": "linear", "use_bias": true, "kernel_initializer": {"module": "keras.initializers", "class_name": "GlorotUniform", "config": {"seed": null}, "registered_name": null}, "bias_initializer": {"module": "keras.initializers", "class_name": "Zeros", "config": {}, "registered_name": null}, "kernel_regularizer": null, "bias_regularizer": null, "activity_regularizer": null, "kernel_constraint": null, "bias_constraint": null}, "name": "conv2d_41", "inbound_nodes": [[["batch_normalization_59", 0, 0, {}]]]}, {"class_name": "BatchNormalization", "config": {"name": "batch_normalization_60", "trainable": true, "dtype": "float32", "axis": [3], "momentum": 0.99, "epsilon": 0.001, "center": true, "scale": true, "beta_initializer": {"module": "keras.initializers", "class_name": "Zeros", "config": {}, "registered_name": null}, "gamma_initializer": {"module": "keras.initializers", "class_name": "Ones", "config": {}, "registered_name": null}, "moving_mean_initializer": {"module": "keras.initializers", "class_name": "Zeros", "config": {}, "registered_name": null}, "moving_variance_initializer": {"module": "keras.initializers", "class_name": "Ones", "config": {}, "registered_name": null}, "beta_regularizer": null, "gamma_regularizer": null, "beta_constraint": null, "gamma_constraint": null}, "name": "batch_normalization_60", "inbound_nodes": [[["conv2d_41", 0, 0, {}]]]}, {"class_name": "ReLU", "config": {"name": "re_lu_17", "trainable": true, "dtype": "float32", "max_value": null, "negative_slope": 0.0, "threshold": 0.0}, "name": "re_lu_17", "inbound_nodes": [[["batch_normalization_60", 0, 0, {}]]]}, {"class_name": "DepthwiseConv2D", "config": {"name": "depthwise_conv2d_17", "trainable": true, "dtype": "float32", "kernel_size": [3, 3], "strides": [1, 1], "padding": "same", "data_format": "channels_last", "dilation_rate": [1, 1], "groups": 1, "activation": "linear", "use_bias": true, "bias_initializer": {"module": "keras.initializers", "class_name": "Zeros", "config": {}, "registered_name": null}, "bias_regularizer": null, "activity_regularizer": null, "bias_constraint": null, "depth_multiplier": 1, "depthwise_initializer": {"module": "keras.initializers", "class_name": "GlorotUniform", "config": {"seed": null}, "registered_name": null}, "depthwise_regularizer": null, "depthwise_constraint": null}, "name": "depthwise_conv2d_17", "inbound_nodes": [[["re_lu_17", 0, 0, {}]]]}, {"class_name": "BatchNormalization", "config": {"name": "batch_normalization_61", "trainable": true, "dtype": "float32", "axis": [3], "momentum": 0.99, "epsilon": 0.001, "center": true, "scale": true, "beta_initializer": {"module": "keras.initializers", "class_name": "Zeros", "config": {}, "registered_name": null}, "gamma_initializer": {"module": "keras.initializers", "class_name": "Ones", "config": {}, "registered_name": null}, "moving_mean_initializer": {"module": "keras.initializers", "class_name": "Zeros", "config": {}, "registered_name": null}, "moving_variance_initializer": {"module": "keras.initializers", "class_name": "Ones", "config": {}, "registered_name": null}, "beta_regularizer": null, "gamma_regularizer": null, "beta_constraint": null, "gamma_constraint": null}, "name": "batch_normalization_61", "inbound_nodes": [[["depthwise_conv2d_17", 0, 0, {}]]]}, {"class_name": "ReLU", "config": {"name": "re_lu_18", "trainable": true, "dtype": "float32", "max_value": null, "negative_slope": 0.0, "threshold": 0.0}, "name": "re_lu_18", "inbound_nodes": [[["batch_normalization_61", 0, 0, {}]]]}, {"class_name": "Conv2D", "config": {"name": "conv2d_42", "trainable": true, "dtype": "float32", "filters": 128, "kernel_size": [1, 1], "strides": [1, 1], "padding": "same", "data_format": "channels_last", "dilation_rate": [1, 1], "groups": 1, "activation": "linear", "use_bias": true, "kernel_initializer": {"module": "keras.initializers", "class_name": "GlorotUniform", "config": {"seed": null}, "registered_name": null}, "bias_initializer": {"module": "keras.initializers", "class_name": "Zeros", "config": {}, "registered_name": null}, "kernel_regularizer": null, "bias_regularizer": null, "activity_regularizer": null, "kernel_constraint": null, "bias_constraint": null}, "name": "conv2d_42", "inbound_nodes": [[["re_lu_18", 0, 0, {}]]]}, {"class_name": "BatchNormalization", "config": {"name": "batch_normalization_62", "trainable": true, "dtype": "float32", "axis": [3], "momentum": 0.99, "epsilon": 0.001, "center": true, "scale": true, "beta_initializer": {"module": "keras.initializers", "class_name": "Zeros", "config": {}, "registered_name": null}, "gamma_initializer": {"module": "keras.initializers", "class_name": "Ones", "config": {}, "registered_name": null}, "moving_mean_initializer": {"module": "keras.initializers", "class_name": "Zeros", "config": {}, "registered_name": null}, "moving_variance_initializer": {"module": "keras.initializers", "class_name": "Ones", "config": {}, "registered_name": null}, "beta_regularizer": null, "gamma_regularizer": null, "beta_constraint": null, "gamma_constraint": null}, "name": "batch_normalization_62", "inbound_nodes": [[["conv2d_42", 0, 0, {}]]]}, {"class_name": "Add", "config": {"name": "add_11", "trainable": true, "dtype": "float32"}, "name": "add_11", "inbound_nodes": [[["batch_normalization_62", 0, 0, {}], ["batch_normalization_59", 0, 0, {}]]]}, {"class_name": "Conv2D", "config": {"name": "conv2d_43", "trainable": true, "dtype": "float32", "filters": 768, "kernel_size": [1, 1], "strides": [1, 1], "padding": "same", "data_format": "channels_last", "dilation_rate": [1, 1], "groups": 1, "activation": "linear", "use_bias": true, "kernel_initializer": {"module": "keras.initializers", "class_name": "GlorotUniform", "config": {"seed": null}, "registered_name": null}, "bias_initializer": {"module": "keras.initializers", "class_name": "Zeros", "config": {}, "registered_name": null}, "kernel_regularizer": null, "bias_regularizer": null, "activity_regularizer": null, "kernel_constraint": null, "bias_constraint": null}, "name": "conv2d_43", "inbound_nodes": [[["add_11", 0, 0, {}]]]}, {"class_name": "BatchNormalization", "config": {"name": "batch_normalization_63", "trainable": true, "dtype": "float32", "axis": [3], "momentum": 0.99, "epsilon": 0.001, "center": true, "scale": true, "beta_initializer": {"module": "keras.initializers", "class_name": "Zeros", "config": {}, "registered_name": null}, "gamma_initializer": {"module": "keras.initializers", "class_name": "Ones", "config": {}, "registered_name": null}, "moving_mean_initializer": {"module": "keras.initializers", "class_name": "Zeros", "config": {}, "registered_name": null}, "moving_variance_initializer": {"module": "keras.initializers", "class_name": "Ones", "config": {}, "registered_name": null}, "beta_regularizer": null, "gamma_regularizer": null, "beta_constraint": null, "gamma_constraint": null}, "name": "batch_normalization_63", "inbound_nodes": [[["conv2d_43", 0, 0, {}]]]}, {"class_name": "ReLU", "config": {"name": "re_lu_19", "trainable": true, "dtype": "float32", "max_value": null, "negative_slope": 0.0, "threshold": 0.0}, "name": "re_lu_19", "inbound_nodes": [[["batch_normalization_63", 0, 0, {}]]]}, {"class_name": "DepthwiseConv2D", "config": {"name": "depthwise_conv2d_18", "trainable": true, "dtype": "float32", "kernel_size": [3, 3], "strides": [1, 1], "padding": "same", "data_format": "channels_last", "dilation_rate": [1, 1], "groups": 1, "activation": "linear", "use_bias": true, "bias_initializer": {"module": "keras.initializers", "class_name": "Zeros", "config": {}, "registered_name": null}, "bias_regularizer": null, "activity_regularizer": null, "bias_constraint": null, "depth_multiplier": 1, "depthwise_initializer": {"module": "keras.initializers", "class_name": "GlorotUniform", "config": {"seed": null}, "registered_name": null}, "depthwise_regularizer": null, "depthwise_constraint": null}, "name": "depthwise_conv2d_18", "inbound_nodes": [[["re_lu_19", 0, 0, {}]]]}, {"class_name": "BatchNormalization", "config": {"name": "batch_normalization_64", "trainable": true, "dtype": "float32", "axis": [3], "momentum": 0.99, "epsilon": 0.001, "center": true, "scale": true, "beta_initializer": {"module": "keras.initializers", "class_name": "Zeros", "config": {}, "registered_name": null}, "gamma_initializer": {"module": "keras.initializers", "class_name": "Ones", "config": {}, "registered_name": null}, "moving_mean_initializer": {"module": "keras.initializers", "class_name": "Zeros", "config": {}, "registered_name": null}, "moving_variance_initializer": {"module": "keras.initializers", "class_name": "Ones", "config": {}, "registered_name": null}, "beta_regularizer": null, "gamma_regularizer": null, "beta_constraint": null, "gamma_constraint": null}, "name": "batch_normalization_64", "inbound_nodes": [[["depthwise_conv2d_18", 0, 0, {}]]]}, {"class_name": "ReLU", "config": {"name": "re_lu_20", "trainable": true, "dtype": "float32", "max_value": null, "negative_slope": 0.0, "threshold": 0.0}, "name": "re_lu_20", "inbound_nodes": [[["batch_normalization_64", 0, 0, {}]]]}, {"class_name": "Conv2D", "config": {"name": "conv2d_44", "trainable": true, "dtype": "float32", "filters": 128, "kernel_size": [1, 1], "strides": [1, 1], "padding": "same", "data_format": "channels_last", "dilation_rate": [1, 1], "groups": 1, "activation": "linear", "use_bias": true, "kernel_initializer": {"module": "keras.initializers", "class_name": "GlorotUniform", "config": {"seed": null}, "registered_name": null}, "bias_initializer": {"module": "keras.initializers", "class_name": "Zeros", "config": {}, "registered_name": null}, "kernel_regularizer": null, "bias_regularizer": null, "activity_regularizer": null, "kernel_constraint": null, "bias_constraint": null}, "name": "conv2d_44", "inbound_nodes": [[["re_lu_20", 0, 0, {}]]]}, {"class_name": "BatchNormalization", "config": {"name": "batch_normalization_65", "trainable": true, "dtype": "float32", "axis": [3], "momentum": 0.99, "epsilon": 0.001, "center": true, "scale": true, "beta_initializer": {"module": "keras.initializers", "class_name": "Zeros", "config": {}, "registered_name": null}, "gamma_initializer": {"module": "keras.initializers", "class_name": "Ones", "config": {}, "registered_name": null}, "moving_mean_initializer": {"module": "keras.initializers", "class_name": "Zeros", "config": {}, "registered_name": null}, "moving_variance_initializer": {"module": "keras.initializers", "class_name": "Ones", "config": {}, "registered_name": null}, "beta_regularizer": null, "gamma_regularizer": null, "beta_constraint": null, "gamma_constraint": null}, "name": "batch_normalization_65", "inbound_nodes": [[["conv2d_44", 0, 0, {}]]]}, {"class_name": "Add", "config": {"name": "add_12", "trainable": true, "dtype": "float32"}, "name": "add_12", "inbound_nodes": [[["batch_normalization_65", 0, 0, {}], ["add_11", 0, 0, {}]]]}, {"class_name": "AveragePooling2D", "config": {"name": "average_pooling2d_4", "trainable": true, "dtype": "float32", "pool_size": [8, 16], "padding": "valid", "strides": [8, 16], "data_format": "channels_last"}, "name": "average_pooling2d_4", "inbound_nodes": [[["add_12", 0, 0, {}]]]}, {"class_name": "AveragePooling2D", "config": {"name": "average_pooling2d_5", "trainable": true, "dtype": "float32", "pool_size": [4, 8], "padding": "valid", "strides": [4, 8], "data_format": "channels_last"}, "name": "average_pooling2d_5", "inbound_nodes": [[["add_12", 0, 0, {}]]]}, {"class_name": "AveragePooling2D", "config": {"name": "average_pooling2d_6", "trainable": true, "dtype": "float32", "pool_size": [2, 5], "padding": "valid", "strides": [2, 5], "data_format": "channels_last"}, "name": "average_pooling2d_6", "inbound_nodes": [[["add_12", 0, 0, {}]]]}, {"class_name": "AveragePooling2D", "config": {"name": "average_pooling2d_7", "trainable": true, "dtype": "float32", "pool_size": [2, 4], "padding": "valid", "strides": [2, 4], "data_format": "channels_last"}, "name": "average_pooling2d_7", "inbound_nodes": [[["add_12", 0, 0, {}]]]}, {"class_name": "Conv2D", "config": {"name": "conv2d_45", "trainable": true, "dtype": "float32", "filters": 128, "kernel_size": [3, 3], "strides": [2, 2], "padding": "same", "data_format": "channels_last", "dilation_rate": [1, 1], "groups": 1, "activation": "linear", "use_bias": true, "kernel_initializer": {"module": "keras.initializers", "class_name": "GlorotUniform", "config": {"seed": null}, "registered_name": null}, "bias_initializer": {"module": "keras.initializers", "class_name": "Zeros", "config": {}, "registered_name": null}, "kernel_regularizer": null, "bias_regularizer": null, "activity_regularizer": null, "kernel_constraint": null, "bias_constraint": null}, "name": "conv2d_45", "inbound_nodes": [[["average_pooling2d_4", 0, 0, {}]]]}, {"class_name": "Conv2D", "config": {"name": "conv2d_46", "trainable": true, "dtype": "float32", "filters": 128, "kernel_size": [3, 3], "strides": [2, 2], "padding": "same", "data_format": "channels_last", "dilation_rate": [1, 1], "groups": 1, "activation": "linear", "use_bias": true, "kernel_initializer": {"module": "keras.initializers", "class_name": "GlorotUniform", "config": {"seed": null}, "registered_name": null}, "bias_initializer": {"module": "keras.initializers", "class_name": "Zeros", "config": {}, "registered_name": null}, "kernel_regularizer": null, "bias_regularizer": null, "activity_regularizer": null, "kernel_constraint": null, "bias_constraint": null}, "name": "conv2d_46", "inbound_nodes": [[["average_pooling2d_5", 0, 0, {}]]]}, {"class_name": "Conv2D", "config": {"name": "conv2d_47", "trainable": true, "dtype": "float32", "filters": 128, "kernel_size": [3, 3], "strides": [2, 2], "padding": "same", "data_format": "channels_last", "dilation_rate": [1, 1], "groups": 1, "activation": "linear", "use_bias": true, "kernel_initializer": {"module": "keras.initializers", "class_name": "GlorotUniform", "config": {"seed": null}, "registered_name": null}, "bias_initializer": {"module": "keras.initializers", "class_name": "Zeros", "config": {}, "registered_name": null}, "kernel_regularizer": null, "bias_regularizer": null, "activity_regularizer": null, "kernel_constraint": null, "bias_constraint": null}, "name": "conv2d_47", "inbound_nodes": [[["average_pooling2d_6", 0, 0, {}]]]}, {"class_name": "Conv2D", "config": {"name": "conv2d_48", "trainable": true, "dtype": "float32", "filters": 128, "kernel_size": [3, 3], "strides": [2, 2], "padding": "same", "data_format": "channels_last", "dilation_rate": [1, 1], "groups": 1, "activation": "linear", "use_bias": true, "kernel_initializer": {"module": "keras.initializers", "class_name": "GlorotUniform", "config": {"seed": null}, "registered_name": null}, "bias_initializer": {"module": "keras.initializers", "class_name": "Zeros", "config": {}, "registered_name": null}, "kernel_regularizer": null, "bias_regularizer": null, "activity_regularizer": null, "kernel_constraint": null, "bias_constraint": null}, "name": "conv2d_48", "inbound_nodes": [[["average_pooling2d_7", 0, 0, {}]]]}, {"class_name": "Resizing", "config": {"name": "resizing_4", "trainable": true, "dtype": "float32", "height": 16, "width": 32, "interpolation": "bilinear", "crop_to_aspect_ratio": false}, "name": "resizing_4", "inbound_nodes": [[["conv2d_45", 0, 0, {}]]]}, {"class_name": "Resizing", "config": {"name": "resizing_5", "trainable": true, "dtype": "float32", "height": 16, "width": 32, "interpolation": "bilinear", "crop_to_aspect_ratio": false}, "name": "resizing_5", "inbound_nodes": [[["conv2d_46", 0, 0, {}]]]}, {"class_name": "Resizing", "config": {"name": "resizing_6", "trainable": true, "dtype": "float32", "height": 16, "width": 32, "interpolation": "bilinear", "crop_to_aspect_ratio": false}, "name": "resizing_6", "inbound_nodes": [[["conv2d_47", 0, 0, {}]]]}, {"class_name": "Resizing", "config": {"name": "resizing_7", "trainable": true, "dtype": "float32", "height": 16, "width": 32, "interpolation": "bilinear", "crop_to_aspect_ratio": false}, "name": "resizing_7", "inbound_nodes": [[["conv2d_48", 0, 0, {}]]]}, {"class_name": "Concatenate", "config": {"name": "concatenate_1", "trainable": true, "dtype": "float32", "axis": -1}, "name": "concatenate_1", "inbound_nodes": [[["add_12", 0, 0, {}], ["resizing_4", 0, 0, {}], ["resizing_5", 0, 0, {}], ["resizing_6", 0, 0, {}], ["resizing_7", 0, 0, {}]]]}, {"class_name": "UpSampling2D", "config": {"name": "up_sampling2d_2", "trainable": true, "dtype": "float32", "size": [4, 4], "data_format": "channels_last", "interpolation": "nearest"}, "name": "up_sampling2d_2", "inbound_nodes": [[["concatenate_1", 0, 0, {}]]]}, {"class_name": "DepthwiseConv2D", "config": {"name": "depthwise_conv2d_19", "trainable": true, "dtype": "float32", "kernel_size": [3, 3], "strides": [1, 1], "padding": "same", "data_format": "channels_last", "dilation_rate": [1, 1], "groups": 1, "activation": "linear", "use_bias": true, "bias_initializer": {"module": "keras.initializers", "class_name": "Zeros", "config": {}, "registered_name": null}, "bias_regularizer": null, "activity_regularizer": null, "bias_constraint": null, "depth_multiplier": 1, "depthwise_initializer": {"module": "keras.initializers", "class_name": "GlorotUniform", "config": {"seed": null}, "registered_name": null}, "depthwise_regularizer": null, "depthwise_constraint": null}, "name": "depthwise_conv2d_19", "inbound_nodes": [[["up_sampling2d_2", 0, 0, {}]]]}, {"class_name": "BatchNormalization", "config": {"name": "batch_normalization_67", "trainable": true, "dtype": "float32", "axis": [3], "momentum": 0.99, "epsilon": 0.001, "center": true, "scale": true, "beta_initializer": {"module": "keras.initializers", "class_name": "Zeros", "config": {}, "registered_name": null}, "gamma_initializer": {"module": "keras.initializers", "class_name": "Ones", "config": {}, "registered_name": null}, "moving_mean_initializer": {"module": "keras.initializers", "class_name": "Zeros", "config": {}, "registered_name": null}, "moving_variance_initializer": {"module": "keras.initializers", "class_name": "Ones", "config": {}, "registered_name": null}, "beta_regularizer": null, "gamma_regularizer": null, "beta_constraint": null, "gamma_constraint": null}, "name": "batch_normalization_67", "inbound_nodes": [[["depthwise_conv2d_19", 0, 0, {}]]]}, {"class_name": "Conv2D", "config": {"name": "conv2d_49", "trainable": true, "dtype": "float32", "filters": 128, "kernel_size": [1, 1], "strides": [1, 1], "padding": "same", "data_format": "channels_last", "dilation_rate": [1, 1], "groups": 1, "activation": "linear", "use_bias": true, "kernel_initializer": {"module": "keras.initializers", "class_name": "GlorotUniform", "config": {"seed": null}, "registered_name": null}, "bias_initializer": {"module": "keras.initializers", "class_name": "Zeros", "config": {}, "registered_name": null}, "kernel_regularizer": null, "bias_regularizer": null, "activity_regularizer": null, "kernel_constraint": null, "bias_constraint": null}, "name": "conv2d_49", "inbound_nodes": [[["re_lu_2", 0, 0, {}]]]}, {"class_name": "ReLU", "config": {"name": "re_lu_21", "trainable": true, "dtype": "float32", "max_value": null, "negative_slope": 0.0, "threshold": 0.0}, "name": "re_lu_21", "inbound_nodes": [[["batch_normalization_67", 0, 0, {}]]]}, {"class_name": "BatchNormalization", "config": {"name": "batch_normalization_66", "trainable": true, "dtype": "float32", "axis": [3], "momentum": 0.99, "epsilon": 0.001, "center": true, "scale": true, "beta_initializer": {"module": "keras.initializers", "class_name": "Zeros", "config": {}, "registered_name": null}, "gamma_initializer": {"module": "keras.initializers", "class_name": "Ones", "config": {}, "registered_name": null}, "moving_mean_initializer": {"module": "keras.initializers", "class_name": "Zeros", "config": {}, "registered_name": null}, "moving_variance_initializer": {"module": "keras.initializers", "class_name": "Ones", "config": {}, "registered_name": null}, "beta_regularizer": null, "gamma_regularizer": null, "beta_constraint": null, "gamma_constraint": null}, "name": "batch_normalization_66", "inbound_nodes": [[["conv2d_49", 0, 0, {}]]]}, {"class_name": "Conv2D", "config": {"name": "conv2d_50", "trainable": true, "dtype": "float32", "filters": 128, "kernel_size": [1, 1], "strides": [1, 1], "padding": "same", "data_format": "channels_last", "dilation_rate": [1, 1], "groups": 1, "activation": "linear", "use_bias": true, "kernel_initializer": {"module": "keras.initializers", "class_name": "GlorotUniform", "config": {"seed": null}, "registered_name": null}, "bias_initializer": {"module": "keras.initializers", "class_name": "Zeros", "config": {}, "registered_name": null}, "kernel_regularizer": null, "bias_regularizer": null, "activity_regularizer": null, "kernel_constraint": null, "bias_constraint": null}, "name": "conv2d_50", "inbound_nodes": [[["re_lu_21", 0, 0, {}]]]}, {"class_name": "Add", "config": {"name": "add_13", "trainable": true, "dtype": "float32"}, "name": "add_13", "inbound_nodes": [[["batch_normalization_66", 0, 0, {}], ["conv2d_50", 0, 0, {}]]]}, {"class_name": "BatchNormalization", "config": {"name": "batch_normalization_68", "trainable": true, "dtype": "float32", "axis": [3], "momentum": 0.99, "epsilon": 0.001, "center": true, "scale": true, "beta_initializer": {"module": "keras.initializers", "class_name": "Zeros", "config": {}, "registered_name": null}, "gamma_initializer": {"module": "keras.initializers", "class_name": "Ones", "config": {}, "registered_name": null}, "moving_mean_initializer": {"module": "keras.initializers", "class_name": "Zeros", "config": {}, "registered_name": null}, "moving_variance_initializer": {"module": "keras.initializers", "class_name": "Ones", "config": {}, "registered_name": null}, "beta_regularizer": null, "gamma_regularizer": null, "beta_constraint": null, "gamma_constraint": null}, "name": "batch_normalization_68", "inbound_nodes": [[["add_13", 0, 0, {}]]]}, {"class_name": "ReLU", "config": {"name": "re_lu_22", "trainable": true, "dtype": "float32", "max_value": null, "negative_slope": 0.0, "threshold": 0.0}, "name": "re_lu_22", "inbound_nodes": [[["batch_normalization_68", 0, 0, {}]]]}, {"class_name": "SeparableConv2D", "config": {"name": "DSConv1_classifier", "trainable": true, "dtype": "float32", "filters": 128, "kernel_size": [3, 3], "strides": [1, 1], "padding": "same", "data_format": "channels_last", "dilation_rate": [1, 1], "groups": 1, "activation": "linear", "use_bias": true, "kernel_initializer": {"module": "keras.initializers", "class_name": "GlorotUniform", "config": {"seed": null}, "registered_name": null}, "bias_initializer": {"module": "keras.initializers", "class_name": "Zeros", "config": {}, "registered_name": null}, "kernel_regularizer": null, "bias_regularizer": null, "activity_regularizer": null, "kernel_constraint": null, "bias_constraint": null, "depth_multiplier": 1, "depthwise_initializer": {"module": "keras.initializers", "class_name": "GlorotUniform", "config": {"seed": null}, "registered_name": null}, "pointwise_initializer": {"module": "keras.initializers", "class_name": "GlorotUniform", "config": {"seed": null}, "registered_name": null}, "depthwise_regularizer": null, "pointwise_regularizer": null, "depthwise_constraint": null, "pointwise_constraint": null}, "name": "DSConv1_classifier", "inbound_nodes": [[["re_lu_22", 0, 0, {}]]]}, {"class_name": "BatchNormalization", "config": {"name": "batch_normalization_69", "trainable": true, "dtype": "float32", "axis": [3], "momentum": 0.99, "epsilon": 0.001, "center": true, "scale": true, "beta_initializer": {"module": "keras.initializers", "class_name": "Zeros", "config": {}, "registered_name": null}, "gamma_initializer": {"module": "keras.initializers", "class_name": "Ones", "config": {}, "registered_name": null}, "moving_mean_initializer": {"module": "keras.initializers", "class_name": "Zeros", "config": {}, "registered_name": null}, "moving_variance_initializer": {"module": "keras.initializers", "class_name": "Ones", "config": {}, "registered_name": null}, "beta_regularizer": null, "gamma_regularizer": null, "beta_constraint": null, "gamma_constraint": null}, "name": "batch_normalization_69", "inbound_nodes": [[["DSConv1_classifier", 0, 0, {}]]]}, {"class_name": "ReLU", "config": {"name": "re_lu_23", "trainable": true, "dtype": "float32", "max_value": null, "negative_slope": 0.0, "threshold": 0.0}, "name": "re_lu_23", "inbound_nodes": [[["batch_normalization_69", 0, 0, {}]]]}, {"class_name": "SeparableConv2D", "config": {"name": "DSConv2_classifier", "trainable": true, "dtype": "float32", "filters": 128, "kernel_size": [3, 3], "strides": [1, 1], "padding": "same", "data_format": "channels_last", "dilation_rate": [1, 1], "groups": 1, "activation": "linear", "use_bias": true, "kernel_initializer": {"module": "keras.initializers", "class_name": "GlorotUniform", "config": {"seed": null}, "registered_name": null}, "bias_initializer": {"module": "keras.initializers", "class_name": "Zeros", "config": {}, "registered_name": null}, "kernel_regularizer": null, "bias_regularizer": null, "activity_regularizer": null, "kernel_constraint": null, "bias_constraint": null, "depth_multiplier": 1, "depthwise_initializer": {"module": "keras.initializers", "class_name": "GlorotUniform", "config": {"seed": null}, "registered_name": null}, "pointwise_initializer": {"module": "keras.initializers", "class_name": "GlorotUniform", "config": {"seed": null}, "registered_name": null}, "depthwise_regularizer": null, "pointwise_regularizer": null, "depthwise_constraint": null, "pointwise_constraint": null}, "name": "DSConv2_classifier", "inbound_nodes": [[["re_lu_23", 0, 0, {}]]]}, {"class_name": "BatchNormalization", "config": {"name": "batch_normalization_70", "trainable": true, "dtype": "float32", "axis": [3], "momentum": 0.99, "epsilon": 0.001, "center": true, "scale": true, "beta_initializer": {"module": "keras.initializers", "class_name": "Zeros", "config": {}, "registered_name": null}, "gamma_initializer": {"module": "keras.initializers", "class_name": "Ones", "config": {}, "registered_name": null}, "moving_mean_initializer": {"module": "keras.initializers", "class_name": "Zeros", "config": {}, "registered_name": null}, "moving_variance_initializer": {"module": "keras.initializers", "class_name": "Ones", "config": {}, "registered_name": null}, "beta_regularizer": null, "gamma_regularizer": null, "beta_constraint": null, "gamma_constraint": null}, "name": "batch_normalization_70", "inbound_nodes": [[["DSConv2_classifier", 0, 0, {}]]]}, {"class_name": "ReLU", "config": {"name": "re_lu_24", "trainable": true, "dtype": "float32", "max_value": null, "negative_slope": 0.0, "threshold": 0.0}, "name": "re_lu_24", "inbound_nodes": [[["batch_normalization_70", 0, 0, {}]]]}, {"class_name": "Conv2D", "config": {"name": "conv2d_51", "trainable": true, "dtype": "float32", "filters": 2, "kernel_size": [1, 1], "strides": [1, 1], "padding": "same", "data_format": "channels_last", "dilation_rate": [1, 1], "groups": 1, "activation": "linear", "use_bias": true, "kernel_initializer": {"module": "keras.initializers", "class_name": "GlorotUniform", "config": {"seed": null}, "registered_name": null}, "bias_initializer": {"module": "keras.initializers", "class_name": "Zeros", "config": {}, "registered_name": null}, "kernel_regularizer": null, "bias_regularizer": null, "activity_regularizer": null, "kernel_constraint": null, "bias_constraint": null}, "name": "conv2d_51", "inbound_nodes": [[["re_lu_24", 0, 0, {}]]]}, {"class_name": "BatchNormalization", "config": {"name": "batch_normalization_71", "trainable": true, "dtype": "float32", "axis": [3], "momentum": 0.99, "epsilon": 0.001, "center": true, "scale": true, "beta_initializer": {"module": "keras.initializers", "class_name": "Zeros", "config": {}, "registered_name": null}, "gamma_initializer": {"module": "keras.initializers", "class_name": "Ones", "config": {}, "registered_name": null}, "moving_mean_initializer": {"module": "keras.initializers", "class_name": "Zeros", "config": {}, "registered_name": null}, "moving_variance_initializer": {"module": "keras.initializers", "class_name": "Ones", "config": {}, "registered_name": null}, "beta_regularizer": null, "gamma_regularizer": null, "beta_constraint": null, "gamma_constraint": null}, "name": "batch_normalization_71", "inbound_nodes": [[["conv2d_51", 0, 0, {}]]]}, {"class_name": "Dropout", "config": {"name": "dropout_1", "trainable": true, "dtype": "float32", "rate": 0.3, "noise_shape": null, "seed": null}, "name": "dropout_1", "inbound_nodes": [[["batch_normalization_71", 0, 0, {}]]]}, {"class_name": "UpSampling2D", "config": {"name": "up_sampling2d_3", "trainable": true, "dtype": "float32", "size": [8, 8], "data_format": "channels_last", "interpolation": "nearest"}, "name": "up_sampling2d_3", "inbound_nodes": [[["dropout_1", 0, 0, {}]]]}, {"class_name": "Softmax", "config": {"name": "softmax", "trainable": true, "dtype": "float32", "axis": -1}, "name": "softmax", "inbound_nodes": [[["up_sampling2d_3", 0, 0, {}]]]}], "input_layers": [["input_layer", 0, 0]], "output_layers": [["softmax", 0, 0]]}}, "training_config": {"loss": "categorical_crossentropy", "metrics": [[{"class_name": "MeanMetricWrapper", "config": {"name": "accuracy", "dtype": "float32", "fn": "categorical_accuracy"}}]], "weighted_metrics": null, "loss_weights": null, "optimizer_config": {"class_name": "SGD", "config": {"name": "SGD", "learning_rate": 0.04500000178813934, "decay": 0.0, "momentum": 0.8999999761581421, "nesterov": false}}}}, "weightsManifest": [{"paths": ["group1-shard1of2.bin", "group1-shard2of2.bin"], "weights": [{"name": "DSConv1_classifier/depthwise_kernel", "shape": [3, 3, 128, 1], "dtype": "float32"}, {"name": "DSConv1_classifier/pointwise_kernel", "shape": [1, 1, 128, 128], "dtype": "float32"}, {"name": "DSConv1_classifier/bias", "shape": [128], "dtype": "float32"}, {"name": "DSConv2_classifier/depthwise_kernel", "shape": [3, 3, 128, 1], "dtype": "float32"}, {"name": "DSConv2_classifier/pointwise_kernel", "shape": [1, 1, 128, 128], "dtype": "float32"}, {"name": "DSConv2_classifier/bias", "shape": [128], "dtype": "float32"}, {"name": "batch_normalization_36/gamma", "shape": [32], "dtype": "float32"}, {"name": "batch_normalization_36/beta", "shape": [32], "dtype": "float32"}, {"name": "batch_normalization_36/moving_mean", "shape": [32], "dtype": "float32"}, {"name": "batch_normalization_36/moving_variance", "shape": [32], "dtype": "float32"}, {"name": "batch_normalization_37/gamma", "shape": [48], "dtype": "float32"}, {"name": "batch_normalization_37/beta", "shape": [48], "dtype": "float32"}, {"name": "batch_normalization_37/moving_mean", "shape": [48], "dtype": "float32"}, {"name": "batch_normalization_37/moving_variance", "shape": [48], "dtype": "float32"}, {"name": "batch_normalization_38/gamma", "shape": [64], "dtype": "float32"}, {"name": "batch_normalization_38/beta", "shape": [64], "dtype": "float32"}, {"name": "batch_normalization_38/moving_mean", "shape": [64], "dtype": "float32"}, {"name": "batch_normalization_38/moving_variance", "shape": [64], "dtype": "float32"}, {"name": "batch_normalization_39/gamma", "shape": [384], "dtype": "float32"}, {"name": "batch_normalization_39/beta", "shape": [384], "dtype": "float32"}, {"name": "batch_normalization_39/moving_mean", "shape": [384], "dtype": "float32"}, {"name": "batch_normalization_39/moving_variance", "shape": [384], "dtype": "float32"}, {"name": "batch_normalization_40/gamma", "shape": [384], "dtype": "float32"}, {"name": "batch_normalization_40/beta", "shape": [384], "dtype": "float32"}, {"name": "batch_normalization_40/moving_mean", "shape": [384], "dtype": "float32"}, {"name": "batch_normalization_40/moving_variance", "shape": [384], "dtype": "float32"}, {"name": "batch_normalization_41/gamma", "shape": [64], "dtype": "float32"}, {"name": "batch_normalization_41/beta", "shape": [64], "dtype": "float32"}, {"name": "batch_normalization_41/moving_mean", "shape": [64], "dtype": "float32"}, {"name": "batch_normalization_41/moving_variance", "shape": [64], "dtype": "float32"}, {"name": "batch_normalization_42/gamma", "shape": [384], "dtype": "float32"}, {"name": "batch_normalization_42/beta", "shape": [384], "dtype": "float32"}, {"name": "batch_normalization_42/moving_mean", "shape": [384], "dtype": "float32"}, {"name": "batch_normalization_42/moving_variance", "shape": [384], "dtype": "float32"}, {"name": "batch_normalization_43/gamma", "shape": [384], "dtype": "float32"}, {"name": "batch_normalization_43/beta", "shape": [384], "dtype": "float32"}, {"name": "batch_normalization_43/moving_mean", "shape": [384], "dtype": "float32"}, {"name": "batch_normalization_43/moving_variance", "shape": [384], "dtype": "float32"}, {"name": "batch_normalization_44/gamma", "shape": [64], "dtype": "float32"}, {"name": "batch_normalization_44/beta", "shape": [64], "dtype": "float32"}, {"name": "batch_normalization_44/moving_mean", "shape": [64], "dtype": "float32"}, {"name": "batch_normalization_44/moving_variance", "shape": [64], "dtype": "float32"}, {"name": "batch_normalization_45/gamma", "shape": [384], "dtype": "float32"}, {"name": "batch_normalization_45/beta", "shape": [384], "dtype": "float32"}, {"name": "batch_normalization_45/moving_mean", "shape": [384], "dtype": "float32"}, {"name": "batch_normalization_45/moving_variance", "shape": [384], "dtype": "float32"}, {"name": "batch_normalization_46/gamma", "shape": [384], "dtype": "float32"}, {"name": "batch_normalization_46/beta", "shape": [384], "dtype": "float32"}, {"name": "batch_normalization_46/moving_mean", "shape": [384], "dtype": "float32"}, {"name": "batch_normalization_46/moving_variance", "shape": [384], "dtype": "float32"}, {"name": "batch_normalization_47/gamma", "shape": [64], "dtype": "float32"}, {"name": "batch_normalization_47/beta", "shape": [64], "dtype": "float32"}, {"name": "batch_normalization_47/moving_mean", "shape": [64], "dtype": "float32"}, {"name": "batch_normalization_47/moving_variance", "shape": [64], "dtype": "float32"}, {"name": "batch_normalization_48/gamma", "shape": [384], "dtype": "float32"}, {"name": "batch_normalization_48/beta", "shape": [384], "dtype": "float32"}, {"name": "batch_normalization_48/moving_mean", "shape": [384], "dtype": "float32"}, {"name": "batch_normalization_48/moving_variance", "shape": [384], "dtype": "float32"}, {"name": "batch_normalization_49/gamma", "shape": [384], "dtype": "float32"}, {"name": "batch_normalization_49/beta", "shape": [384], "dtype": "float32"}, {"name": "batch_normalization_49/moving_mean", "shape": [384], "dtype": "float32"}, {"name": "batch_normalization_49/moving_variance", "shape": [384], "dtype": "float32"}, {"name": "batch_normalization_50/gamma", "shape": [96], "dtype": "float32"}, {"name": "batch_normalization_50/beta", "shape": [96], "dtype": "float32"}, {"name": "batch_normalization_50/moving_mean", "shape": [96], "dtype": "float32"}, {"name": "batch_normalization_50/moving_variance", "shape": [96], "dtype": "float32"}, {"name": "batch_normalization_51/gamma", "shape": [576], "dtype": "float32"}, {"name": "batch_normalization_51/beta", "shape": [576], "dtype": "float32"}, {"name": "batch_normalization_51/moving_mean", "shape": [576], "dtype": "float32"}, {"name": "batch_normalization_51/moving_variance", "shape": [576], "dtype": "float32"}, {"name": "batch_normalization_52/gamma", "shape": [576], "dtype": "float32"}, {"name": "batch_normalization_52/beta", "shape": [576], "dtype": "float32"}, {"name": "batch_normalization_52/moving_mean", "shape": [576], "dtype": "float32"}, {"name": "batch_normalization_52/moving_variance", "shape": [576], "dtype": "float32"}, {"name": "batch_normalization_53/gamma", "shape": [96], "dtype": "float32"}, {"name": "batch_normalization_53/beta", "shape": [96], "dtype": "float32"}, {"name": "batch_normalization_53/moving_mean", "shape": [96], "dtype": "float32"}, {"name": "batch_normalization_53/moving_variance", "shape": [96], "dtype": "float32"}, {"name": "batch_normalization_54/gamma", "shape": [576], "dtype": "float32"}, {"name": "batch_normalization_54/beta", "shape": [576], "dtype": "float32"}, {"name": "batch_normalization_54/moving_mean", "shape": [576], "dtype": "float32"}, {"name": "batch_normalization_54/moving_variance", "shape": [576], "dtype": "float32"}, {"name": "batch_normalization_55/gamma", "shape": [576], "dtype": "float32"}, {"name": "batch_normalization_55/beta", "shape": [576], "dtype": "float32"}, {"name": "batch_normalization_55/moving_mean", "shape": [576], "dtype": "float32"}, {"name": "batch_normalization_55/moving_variance", "shape": [576], "dtype": "float32"}, {"name": "batch_normalization_56/gamma", "shape": [96], "dtype": "float32"}, {"name": "batch_normalization_56/beta", "shape": [96], "dtype": "float32"}, {"name": "batch_normalization_56/moving_mean", "shape": [96], "dtype": "float32"}, {"name": "batch_normalization_56/moving_variance", "shape": [96], "dtype": "float32"}, {"name": "batch_normalization_57/gamma", "shape": [576], "dtype": "float32"}, {"name": "batch_normalization_57/beta", "shape": [576], "dtype": "float32"}, {"name": "batch_normalization_57/moving_mean", "shape": [576], "dtype": "float32"}, {"name": "batch_normalization_57/moving_variance", "shape": [576], "dtype": "float32"}, {"name": "batch_normalization_58/gamma", "shape": [576], "dtype": "float32"}, {"name": "batch_normalization_58/beta", "shape": [576], "dtype": "float32"}, {"name": "batch_normalization_58/moving_mean", "shape": [576], "dtype": "float32"}, {"name": "batch_normalization_58/moving_variance", "shape": [576], "dtype": "float32"}, {"name": "batch_normalization_59/gamma", "shape": [128], "dtype": "float32"}, {"name": "batch_normalization_59/beta", "shape": [128], "dtype": "float32"}, {"name": "batch_normalization_59/moving_mean", "shape": [128], "dtype": "float32"}, {"name": "batch_normalization_59/moving_variance", "shape": [128], "dtype": "float32"}, {"name": "batch_normalization_60/gamma", "shape": [768], "dtype": "float32"}, {"name": "batch_normalization_60/beta", "shape": [768], "dtype": "float32"}, {"name": "batch_normalization_60/moving_mean", "shape": [768], "dtype": "float32"}, {"name": "batch_normalization_60/moving_variance", "shape": [768], "dtype": "float32"}, {"name": "batch_normalization_61/gamma", "shape": [768], "dtype": "float32"}, {"name": "batch_normalization_61/beta", "shape": [768], "dtype": "float32"}, {"name": "batch_normalization_61/moving_mean", "shape": [768], "dtype": "float32"}, {"name": "batch_normalization_61/moving_variance", "shape": [768], "dtype": "float32"}, {"name": "batch_normalization_62/gamma", "shape": [128], "dtype": "float32"}, {"name": "batch_normalization_62/beta", "shape": [128], "dtype": "float32"}, {"name": "batch_normalization_62/moving_mean", "shape": [128], "dtype": "float32"}, {"name": "batch_normalization_62/moving_variance", "shape": [128], "dtype": "float32"}, {"name": "batch_normalization_63/gamma", "shape": [768], "dtype": "float32"}, {"name": "batch_normalization_63/beta", "shape": [768], "dtype": "float32"}, {"name": "batch_normalization_63/moving_mean", "shape": [768], "dtype": "float32"}, {"name": "batch_normalization_63/moving_variance", "shape": [768], "dtype": "float32"}, {"name": "batch_normalization_64/gamma", "shape": [768], "dtype": "float32"}, {"name": "batch_normalization_64/beta", "shape": [768], "dtype": "float32"}, {"name": "batch_normalization_64/moving_mean", "shape": [768], "dtype": "float32"}, {"name": "batch_normalization_64/moving_variance", "shape": [768], "dtype": "float32"}, {"name": "batch_normalization_65/gamma", "shape": [128], "dtype": "float32"}, {"name": "batch_normalization_65/beta", "shape": [128], "dtype": "float32"}, {"name": "batch_normalization_65/moving_mean", "shape": [128], "dtype": "float32"}, {"name": "batch_normalization_65/moving_variance", "shape": [128], "dtype": "float32"}, {"name": "batch_normalization_66/gamma", "shape": [128], "dtype": "float32"}, {"name": "batch_normalization_66/beta", "shape": [128], "dtype": "float32"}, {"name": "batch_normalization_66/moving_mean", "shape": [128], "dtype": "float32"}, {"name": "batch_normalization_66/moving_variance", "shape": [128], "dtype": "float32"}, {"name": "batch_normalization_67/gamma", "shape": [640], "dtype": "float32"}, {"name": "batch_normalization_67/beta", "shape": [640], "dtype": "float32"}, {"name": "batch_normalization_67/moving_mean", "shape": [640], "dtype": "float32"}, {"name": "batch_normalization_67/moving_variance", "shape": [640], "dtype": "float32"}, {"name": "batch_normalization_68/gamma", "shape": [128], "dtype": "float32"}, {"name": "batch_normalization_68/beta", "shape": [128], "dtype": "float32"}, {"name": "batch_normalization_68/moving_mean", "shape": [128], "dtype": "float32"}, {"name": "batch_normalization_68/moving_variance", "shape": [128], "dtype": "float32"}, {"name": "batch_normalization_69/gamma", "shape": [128], "dtype": "float32"}, {"name": "batch_normalization_69/beta", "shape": [128], "dtype": "float32"}, {"name": "batch_normalization_69/moving_mean", "shape": [128], "dtype": "float32"}, {"name": "batch_normalization_69/moving_variance", "shape": [128], "dtype": "float32"}, {"name": "batch_normalization_70/gamma", "shape": [128], "dtype": "float32"}, {"name": "batch_normalization_70/beta", "shape": [128], "dtype": "float32"}, {"name": "batch_normalization_70/moving_mean", "shape": [128], "dtype": "float32"}, {"name": "batch_normalization_70/moving_variance", "shape": [128], "dtype": "float32"}, {"name": "batch_normalization_71/gamma", "shape": [2], "dtype": "float32"}, {"name": "batch_normalization_71/beta", "shape": [2], "dtype": "float32"}, {"name": "batch_normalization_71/moving_mean", "shape": [2], "dtype": "float32"}, {"name": "batch_normalization_71/moving_variance", "shape": [2], "dtype": "float32"}, {"name": "conv2d_26/kernel", "shape": [3, 3, 3, 32], "dtype": "float32"}, {"name": "conv2d_26/bias", "shape": [32], "dtype": "float32"}, {"name": "conv2d_27/kernel", "shape": [1, 1, 64, 384], "dtype": "float32"}, {"name": "conv2d_27/bias", "shape": [384], "dtype": "float32"}, {"name": "conv2d_28/kernel", "shape": [1, 1, 384, 64], "dtype": "float32"}, {"name": "conv2d_28/bias", "shape": [64], "dtype": "float32"}, {"name": "conv2d_29/kernel", "shape": [1, 1, 64, 384], "dtype": "float32"}, {"name": "conv2d_29/bias", "shape": [384], "dtype": "float32"}, {"name": "conv2d_30/kernel", "shape": [1, 1, 384, 64], "dtype": "float32"}, {"name": "conv2d_30/bias", "shape": [64], "dtype": "float32"}, {"name": "conv2d_31/kernel", "shape": [1, 1, 64, 384], "dtype": "float32"}, {"name": "conv2d_31/bias", "shape": [384], "dtype": "float32"}, {"name": "conv2d_32/kernel", "shape": [1, 1, 384, 64], "dtype": "float32"}, {"name": "conv2d_32/bias", "shape": [64], "dtype": "float32"}, {"name": "conv2d_33/kernel", "shape": [1, 1, 64, 384], "dtype": "float32"}, {"name": "conv2d_33/bias", "shape": [384], "dtype": "float32"}, {"name": "conv2d_34/kernel", "shape": [1, 1, 384, 96], "dtype": "float32"}, {"name": "conv2d_34/bias", "shape": [96], "dtype": "float32"}, {"name": "conv2d_35/kernel", "shape": [1, 1, 96, 576], "dtype": "float32"}, {"name": "conv2d_35/bias", "shape": [576], "dtype": "float32"}, {"name": "conv2d_36/kernel", "shape": [1, 1, 576, 96], "dtype": "float32"}, {"name": "conv2d_36/bias", "shape": [96], "dtype": "float32"}, {"name": "conv2d_37/kernel", "shape": [1, 1, 96, 576], "dtype": "float32"}, {"name": "conv2d_37/bias", "shape": [576], "dtype": "float32"}, {"name": "conv2d_38/kernel", "shape": [1, 1, 576, 96], "dtype": "float32"}, {"name": "conv2d_38/bias", "shape": [96], "dtype": "float32"}, {"name": "conv2d_39/kernel", "shape": [1, 1, 96, 576], "dtype": "float32"}, {"name": "conv2d_39/bias", "shape": [576], "dtype": "float32"}, {"name": "conv2d_40/kernel", "shape": [1, 1, 576, 128], "dtype": "float32"}, {"name": "conv2d_40/bias", "shape": [128], "dtype": "float32"}, {"name": "conv2d_41/kernel", "shape": [1, 1, 128, 768], "dtype": "float32"}, {"name": "conv2d_41/bias", "shape": [768], "dtype": "float32"}, {"name": "conv2d_42/kernel", "shape": [1, 1, 768, 128], "dtype": "float32"}, {"name": "conv2d_42/bias", "shape": [128], "dtype": "float32"}, {"name": "conv2d_43/kernel", "shape": [1, 1, 128, 768], "dtype": "float32"}, {"name": "conv2d_43/bias", "shape": [768], "dtype": "float32"}, {"name": "conv2d_44/kernel", "shape": [1, 1, 768, 128], "dtype": "float32"}, {"name": "conv2d_44/bias", "shape": [128], "dtype": "float32"}, {"name": "conv2d_45/kernel", "shape": [3, 3, 128, 128], "dtype": "float32"}, {"name": "conv2d_45/bias", "shape": [128], "dtype": "float32"}, {"name": "conv2d_46/kernel", "shape": [3, 3, 128, 128], "dtype": "float32"}, {"name": "conv2d_46/bias", "shape": [128], "dtype": "float32"}, {"name": "conv2d_47/kernel", "shape": [3, 3, 128, 128], "dtype": "float32"}, {"name": "conv2d_47/bias", "shape": [128], "dtype": "float32"}, {"name": "conv2d_48/kernel", "shape": [3, 3, 128, 128], "dtype": "float32"}, {"name": "conv2d_48/bias", "shape": [128], "dtype": "float32"}, {"name": "conv2d_49/kernel", "shape": [1, 1, 64, 128], "dtype": "float32"}, {"name": "conv2d_49/bias", "shape": [128], "dtype": "float32"}, {"name": "conv2d_50/kernel", "shape": [1, 1, 640, 128], "dtype": "float32"}, {"name": "conv2d_50/bias", "shape": [128], "dtype": "float32"}, {"name": "conv2d_51/kernel", "shape": [1, 1, 128, 2], "dtype": "float32"}, {"name": "conv2d_51/bias", "shape": [2], "dtype": "float32"}, {"name": "depthwise_conv2d_10/depthwise_kernel", "shape": [3, 3, 384, 1], "dtype": "float32"}, {"name": "depthwise_conv2d_10/bias", "shape": [384], "dtype": "float32"}, {"name": "depthwise_conv2d_11/depthwise_kernel", "shape": [3, 3, 384, 1], "dtype": "float32"}, {"name": "depthwise_conv2d_11/bias", "shape": [384], "dtype": "float32"}, {"name": "depthwise_conv2d_12/depthwise_kernel", "shape": [3, 3, 384, 1], "dtype": "float32"}, {"name": "depthwise_conv2d_12/bias", "shape": [384], "dtype": "float32"}, {"name": "depthwise_conv2d_13/depthwise_kernel", "shape": [3, 3, 384, 1], "dtype": "float32"}, {"name": "depthwise_conv2d_13/bias", "shape": [384], "dtype": "float32"}, {"name": "depthwise_conv2d_14/depthwise_kernel", "shape": [3, 3, 576, 1], "dtype": "float32"}, {"name": "depthwise_conv2d_14/bias", "shape": [576], "dtype": "float32"}, {"name": "depthwise_conv2d_15/depthwise_kernel", "shape": [3, 3, 576, 1], "dtype": "float32"}, {"name": "depthwise_conv2d_15/bias", "shape": [576], "dtype": "float32"}, {"name": "depthwise_conv2d_16/depthwise_kernel", "shape": [3, 3, 576, 1], "dtype": "float32"}, {"name": "depthwise_conv2d_16/bias", "shape": [576], "dtype": "float32"}, {"name": "depthwise_conv2d_17/depthwise_kernel", "shape": [3, 3, 768, 1], "dtype": "float32"}, {"name": "depthwise_conv2d_17/bias", "shape": [768], "dtype": "float32"}, {"name": "depthwise_conv2d_18/depthwise_kernel", "shape": [3, 3, 768, 1], "dtype": "float32"}, {"name": "depthwise_conv2d_18/bias", "shape": [768], "dtype": "float32"}, {"name": "depthwise_conv2d_19/depthwise_kernel", "shape": [3, 3, 640, 1], "dtype": "float32"}, {"name": "depthwise_conv2d_19/bias", "shape": [640], "dtype": "float32"}, {"name": "separable_conv2d_2/depthwise_kernel", "shape": [3, 3, 32, 1], "dtype": "float32"}, {"name": "separable_conv2d_2/pointwise_kernel", "shape": [1, 1, 32, 48], "dtype": "float32"}, {"name": "separable_conv2d_2/bias", "shape": [48], "dtype": "float32"}, {"name": "separable_conv2d_3/depthwise_kernel", "shape": [3, 3, 48, 1], "dtype": "float32"}, {"name": "separable_conv2d_3/pointwise_kernel", "shape": [1, 1, 48, 64], "dtype": "float32"}, {"name": "separable_conv2d_3/bias", "shape": [64], "dtype": "float32"}]}]}